…
The following modules were not unloaded:
  (Use "module --force purge" to unload all):

  1) xalt/3.0.2
Environment loaded: py-gnn-env-py3.12.11
/apps/external/apps/conda/2025.09/bin/python
Python 3.12.11
Starting training script...
Loading data... (5.69s)
Constructing model... (7.81s)
Starting training... (7.85s)
model: virtualNodeGNN(
  (conv1): TransformerConv(-1, 64, heads=4)
  (conv2): TransformerConv(64, 64, heads=4)
  (conv3): TransformerConv(64, 64, heads=4)
  (conv4): TransformerConv(64, 64, heads=4)
  (conv5): TransformerConv(64, 64, heads=4)
  (conv6): TransformerConv(64, 1, heads=4)
  (vn_mlp1): Sequential(
    (0): Linear(in_features=64, out_features=64, bias=True)
    (1): ReLU()
    (2): Linear(in_features=64, out_features=64, bias=True)
  )
  (vn_mlp2): Sequential(
    (0): Linear(in_features=64, out_features=64, bias=True)
    (1): ReLU()
    (2): Linear(in_features=64, out_features=64, bias=True)
  )
  (vn_mlp3): Sequential(
    (0): Linear(in_features=64, out_features=64, bias=True)
    (1): ReLU()
    (2): Linear(in_features=64, out_features=64, bias=True)
  )
  (vn_mlp4): Sequential(
    (0): Linear(in_features=64, out_features=64, bias=True)
    (1): ReLU()
    (2): Linear(in_features=64, out_features=64, bias=True)
  )
  (vn_mlp5): Sequential(
    (0): Linear(in_features=64, out_features=64, bias=True)
    (1): ReLU()
    (2): Linear(in_features=64, out_features=64, bias=True)
  )
  (dropout): Dropout(p=0.05, inplace=False)
)
data: HeteroData(
  bus={
    x=[2000, 25],
    y=[2000, 1],
  },
  (bus, wire, bus)={
    edge_index=[2, 5334],
    edge_attr=[5334, 11],
  }
)
criterion: MSELoss()
optimizer: Adam (
Parameter Group 0
    amsgrad: False
    betas: (0.9, 0.999)
    capturable: False
    decoupled_weight_decay: False
    differentiable: False
…
